fridgeai_flutter-main/assets/model.tflite (tflite, 215464 bytes, 10 tensors)

sequential/conv2d/Relu;sequential/conv2d/BiasAdd;sequential/conv2d_2/Conv2D;sequential/conv2d/Conv2D;sequential/conv2d/BiasAdd/ReadVariableOp f4 [32, 3, 3, 3]
0	0x3a05f78a	0.00051104336
1	0x3a6b35bc	0.00089725456
2	0xba7ba662	-0.0009599683
3	0x39d1ccc3	0.00040016146
4	0x395e1e31	0.00021182817
5	0xb9f43d30	-0.00046584895
6	0x377a7481	1.4928287e-05
7	0x3a70c6a5	0.0009184874
8	0xba6666cc	-0.00087891216
9	0xb9481143	-0.00019079917
10	0x3a2cfa3b	0.00065985665
11	0xba992412	-0.0011683723
12	0x39b545be	0.00034574972
13	0x3a80b6b2	0.0009820072
14	0xbaa1bbbd	-0.0012339276
15	0x395eb92e	0.00021240555
16	0x3a4de8b2	0.00078548037
17	0xba42235d	-0.0007405782
18	0x39b49a40	0.000344472
19	0x3a6843d0	0.00088602025
20	0xba5d2295	-0.0008435634
21	0x39c0e956	0.00036794943
22	0x3a2bf9a9	0.00065603346
23	0xba8003a5	-0.0009766711
24	0xb95596d7	-0.00020369455
25	0x3a45b964	0.0007542579
26	0xba1eac52	-0.00060528994
27	0xb93af0d5	-0.00017828059
28	0xb9db02ab	-0.00041772923
29	0xb9c6c895	-0.00037914948
30	0xb882c9d9	-6.23648e-05
31	0xb91dc099	-0.00015044435
32	0x39989ada	0.00029107073
33	0xb9e076cc	-0.0004281312
34	0x3a0c05a8	0.0005341419
35	0x39e26620	0.00043182168
36	0xb9b08653	-0.00033669415
37	0xba0433b8	-0.0005043107
38	0xbaa86f2d	-0.0012850516
39	0x3a033db1	0.0005006446
40	0x37d56602	2.543908e-05
41	0xb8d9a448	-0.00010377966
42	0x3a197ff3	0.0005855553
43	0x3a6b88a2	0.00089848984
44	0x39d19594	0.0003997503
45	0x39bb5cf7	0.00035736684
46	0x39093ae1	0.00013087272
47	0xba55b375	-0.00081520464
48	0xb9ebdda5	-0.0004498783
49	0xb975899b	-0.00023416283
50	0xba8afd44	-0.0010604043
51	0x3a02629a	0.0004973799
52	0x39dc29b4	0.0004199274
53	0xb9884f3e	-0.0002599898
54	0xba00af36	-0.0004908921
55	0xb7493604	-1.199311e-05
56	0x3a12c538	0.0005598846
57	0xb918a72e	-0.00014558129
58	0x387a59bf	5.9688227e-05
59	0x39d106ef	0.00039868752
60	0x39a85a9f	0.00032110975
61	0xb78b35ae	-1.6595088e-05
62	0x3a3fc239	0.0007315013
63	0x39ab88b4	0.00032717513
64	0xb9bfc795	-0.0003657906
65	0x39606e25	0.00021403337
66	0x395dea54	0.00021163496
67	0x3933676b	0.00017109296
68	0x3ab6c52c	0.001394426
69	0xb9425981	-0.00018534625
70	0x3a1a7db7	0.0005893367
71	0x3a9991c8	0.001171642
72	0x38d16dc0	9.986339e-05
73	0x391f528b	0.00015194171
74	0xb98348bf	-0.00025040467
75	0xb97dfae1	-0.0002422142
76	0x3a0002c2	0.00048832234
77	0x3a1aaf82	0.00059007865
78	0x39bf61f3	0.00036503337
79	0xb9df37fe	-0.00042575592
80	0xb9249b28	-0.00015698059
81	0xb9c19778	-0.00036924682
82	0x39bdea7b	0.0003622359
83	0xba979f2b	-0.0011567821
84	0x39d694bb	0.00040928074
85	0xb96e0a1a	-0.00022701212
86	0xbaba03d1	-0.0014191811
87	0xba118bb4	-0.00055521284
88	0x3a41a065	0.00073862664
89	0xb9e27d7b	-0.0004319957
90	0xb9cd31b3	-0.00039137676
91	0xb5a5c24c	-1.2350006e-06
92	0xbaab073a	-0.0013048418
93	0x39812eb8	0.00024639606
94	0x3a0607f6	0.00051128806
95	0xba69f513	-0.00089247635
96	0x39c2b70a	0.00037138938
97	0x39a088e0	0.00030619558
98	0xba251285	-0.000629701
99	0xb9a59171	-0.00031579615
100	0x3a0f3562	0.0005462972
101	0xba78a2d2	-0.00094847113
102	0x39b76512	0.00034979783
103	0x3a5565a5	0.00081404514
104	0x38a334db	7.782291e-05
105	0xb9f23185	-0.00046194732
106	0x3a31b818	0.0006779446
107	0x39bc830d	0.00035955795
108	0x399a9975	0.00029487503
109	0xba94dbf0	-0.001135705
110	0xb6a00469	-4.768885e-06
111	0xb84650d8	-4.728217e-05
112	0xba304c8e	-0.0006725275
113	0x39b9c650	0.00035433704
114	0xb9b0b45a	-0.00033703708
115	0xbaa77c97	-0.001277822
116	0xb9b2676c	-0.0003402786
117	0x3892c51b	6.998536e-05
118	0xb9442014	-0.00018703967
119	0x3a040e24	0.00050375075
120	0xb8ac81d8	-8.2257844e-05
121	0xb9ebb7c5	-0.00044959612
122	0x3a4d0f6e	0.00078224286
123	0xb9d474e1	-0.00040522873
124	0xba99339c	-0.0011688354
125	0x3a7b4064	0.0009584485
126	0x3a5b08fa	0.00083555246
127	0x39e82dee	0.0004428471
128	0x3aa7408b	0.0012760324
129	0x3a1e7f23	0.00060461665
130	0x39b104b5	0.00033763578
131	0x3ab75b35	0.0013988974
132	0x3a022f0a	0.0004966116
133	0xb9eb468d	-0.00044875257
134	0x3ab33046	0.0013671003
135	0x3a000706	0.0004883859
136	0x3ac2e0c6	0.0014868013
137	0x3ab8aa08	0.0014088759
138	0x381e0e4e	3.7683458e-05
139	0x3aa2a0d2	0.0012407547
140	0x3a3a5c95	0.0007109133
141	0xba2854de	-0.00064213376
142	0xba3abfde	-0.00071239274
143	0xba95cfa4	-0.001142968
144	0x3a9fc0b2	0.0012188165
145	0x3a323f21	0.0006799568
146	0x3a1068cf	0.0005508782
147	0xba08b3e2	-0.0005214793
148	0xba559898	-0.00081480434
149	0xbac359ca	-0.0014904079
150	0xba719e4d	-0.0009217009
151	0xba1d5d4c	-0.0006002977
152	0xbaf6a295	-0.0018816764
153	0xb915fbd8	-0.00014303566
154	0x3a4fccef	0.0007926961
155	0xba4109a3	-0.00073638017
156	0xb9952f26	-0.00028454623
157	0xb9ca9f2f	-0.00038647043
158	0xb9dc8dec	-0.0004206741
159	0xba552bd3	-0.00081318355
160	0xb7df4809	-2.6617216e-05
161	0xbb0b3797	-0.002124285
162	0x39f7aaf5	0.00047238884
163	0xb95bc22c	-0.00020957802
164	0x38946326	7.075658e-05
165	0xb9c24b3a	-0.00037058612
166	0xba97fd5d	-0.0011595894
167	0xba3c7818	-0.0007189526
168	0xba13f7ec	-0.0005644548
169	0xba8c254f	-0.0010692271
170	0xbafad963	-0.0019138273
171	0x39904954	0.00027520454
172	0x39e70ff6	0.00044071645
173	0x39d0e482	0.00039843103
174	0xb9ed2452	-0.00045231223
175	0xb99674ec	-0.00028697343
176	0xba8803ee	-0.0010377148
177	0xb7135bf0	-8.783289e-06
178	0xb900a5c6	-0.00012268787
179	0xba921dac	-0.0011147759
180	0x39bb2766	0.00035696774
181	0x3a7cef7f	0.0009648725
182	0x3a5fdc4f	0.00085396034
183	0x38bf8e61	9.13411e-05
184	0xb9bab127	-0.00035608673
185	0xb8047d69	-3.158805e-05
186	0xb79aedef	-1.8469027e-05
187	0x38769a98	5.8794947e-05
188	0xba4dc225	-0.0007849059
189	0xb8ac8eaa	-8.2281724e-05
190	0x3a0f9a03	0.00054779666
191	0x39aa9cf4	0.00032541866
192	0xba07af2b	-0.00051759434
193	0xb9e85b64	-0.0004431858
194	0x3a10e6c5	0.00055275514
195	0xba331aa8	-0.000683228
196	0xba135319	-0.00056199875
197	0x39fa1585	0.0004769975
198	0xbaa50de7	-0.0012592644
199	0xb807b44f	-3.2354434e-05
200	0x3a0575b5	0.0005091087
201	0xba97669f	-0.0011550969
202	0xb90be1c8	-0.00013340183
203	0x398da425	0.00027015913
204	0xb9debf07	-0.00042485466
205	0x39a3e257	0.0003125842
206	0x3a5d52aa	0.0008442799
207	0xba8bbd8d	-0.0010661349
208	0xba454233	-0.0007524818
209	0x3a085522	0.0005200674
210	0xba81d0c2	-0.0009904134
211	0xb9900d97	-0.00027475946
212	0x39bfbfef	0.0003657336
213	0x39eb723e	0.0004490781
214	0x3a298618	0.000646682
215	0x3a8a0c7e	0.0010532287
216	0x3a6b0da1	0.00089665694
217	0x38b5fe65	8.678137e-05
218	0x3a72e06e	0.000926501
219	0xb9e42dd7	-0.00043521702
220	0xba882fe2	-0.0010390247
221	0xb8250295	-3.934147e-05
222	0x3916a4f2	0.00014366562
223	0xbaf9e857	-0.0019066435
224	0xb93f307a	-0.00018233238
225	0x39d94e1b	0.00041447658
226	0xba60bb04	-0.00085727894
227	0x3a4f8560	0.0007916298
228	0xba0d1448	-0.0005381745
229	0xbaefbd05	-0.0018290585
230	0x384c03b5	4.8640843e-05
231	0xba1046cb	-0.0005503713
232	0xba79e759	-0.00095330697
233	0xb921ab36	-0.00015417938
234	0x3974e095	0.00023353317
235	0xba87b44c	-0.0010353415
236	0xb981a1f4	-0.00024725462
237	0x38962760	7.1598915e-05
238	0xba88f1a9	-0.0010447997
239	0x3981d8a9	0.00024766222
240	0xb89b9040	-7.4178446e-05
241	0x3a111fa4	0.0005536026
242	0x3ad788f4	0.0016444013
243	0xb8ec32e6	-0.000112628375
244	0xb96b92df	-0.0002246606
245	0xba0dff04	-0.00054167234
246	0xb9d469f4	-0.00040514732
247	0xba1fa732	-0.00060902827
248	0x39db3135	0.00041807597
249	0x3ab21a89	0.001358823
250	0x3a94ea71	0.0011361373
251	0x3a9a7b75	0.0011786061
252	0x3991a4b4	0.0002777927
253	0xba2e2a39	-0.0006643865
254	0x398ea925	0.00027210373
255	0xba137fda	-0.00056266563

sequential/conv2d/BiasAdd/ReadVariableOp f4 [32]
0	0xbc7add0d	-0.015311492
1	0xbe98bbbc	-0.2983073
2	0xbe8f7ee9	-0.28026512
3	0xbdb749f6	-0.08949654
4	0xbcae70c5	-0.021294007
5	0x3df2273e	0.11823891
6	0xbdb0b12b	-0.08627542
7	0x3d9528b6	0.072831556
8	0x3dc4f3d2	0.096168175
9	0x3e118bd2	0.14213493
10	0x3dee057a	0.11622138
11	0x3db51373	0.088416
12	0x3caf0f67	0.02136965
13	0x3e62bef0	0.2214315
14	0xbd4eef73	-0.050521325
15	0x3cae106e	0.021248069
16	0xbe1e963b	-0.15486996
17	0xbcc27afc	-0.023740284
18	0x3df18e2a	0.11794694
19	0x3e3a194d	0.18173714
20	0xbe7ff704	-0.24996573
21	0x3d647820	0.055778623
22	0xbc60d240	-0.0137220025
23	0x3d9efc3a	0.07762952
24	0xbe2d400d	-0.16918965
25	0xbe0dd3b1	-0.13850285
26	0x3d91667c	0.070996255
27	0xbccb24ac	-0.02479776
28	0xbdc8e2be	-0.09808873
29	0x3d9d2209	0.07672507
30	0x3c527bc2	0.012846889
31	0xbe72ef16	-0.23724017

sequential/conv2d_1/BiasAdd/ReadVariableOp f4 [32]
0	0x3e2a4983	0.16629605
1	0xbd132bc1	-0.0359304
2	0xbd3e07de	-0.04639422
3	0x3e3b1475	0.18269522
4	0xbe8f7f3a	-0.28026754
5	0x3d8fae11	0.070156224
6	0x3db39f1a	0.087705806
7	0xbd391987	-0.04519036
8	0x3dbffb6c	0.09374127
9	0x3d34e4f0	0.044163644
10	0xbe622bd1	-0.22087027
11	0x3be802df	0.0070804204
12	0x3cf927c9	0.030414479
13	0xbe797afb	-0.2436332
14	0xbe246015	-0.16052277
15	0xbda259c3	-0.07927277
16	0xbc0b5534	-0.008504201
17	0xbe9e1e4e	-0.30882496
18	0xbe1894b2	-0.14900473
19	0xbd317b25	-0.04333033
20	0xbde9d699	-0.114178844
21	0xbd4e260d	-0.050329257
22	0xbe7ef825	-0.24899347
23	0xbe0e13e6	-0.13874778
24	0x3e56b7fe	0.20968625
25	0xbd70e8a1	-0.058815602
26	0xbab50ec1	-0.0013813601
27	0xbe0f9092	-0.14019993
28	0xbe26ed9c	-0.16301578
29	0xbd6da227	-0.05801597
30	0xbe6bd54a	-0.23030582
31	0xbe329a19	-0.17441596

sequential/conv2d_2/BiasAdd/ReadVariableOp f4 [32]
0	0xbe527506	-0.20552453
1	0x3df2c0cf	0.118531816
2	0xbeaf56f1	-0.3424602
3	0xbd8603aa	-0.065436676
4	0xbca7360c	-0.020411514
5	0xbe4e75b2	-0.20162085
6	0x3e9fe378	0.31228232
7	0xbba8859f	-0.005142882
8	0xbc938bdd	-0.018011028
9	0xbe2431fb	-0.16034691
10	0xbba792eb	-0.0051139495
11	0x3d0fe7ea	0.03513328
12	0xbe9e2418	-0.30886912
13	0xbdf491e7	-0.11941891
14	0xbd8990fa	-0.06717105
15	0x3c9f261e	0.019427355
16	0x3d5d2b0a	0.053996123
17	0x3e03ffe8	0.12890589
18	0xbd82855c	-0.063730925
19	0xbe8e1a85	-0.27754608
20	0xbe96783f	-0.29388615
21	0x3e750501	0.2392769
22	0xbe897c21	-0.26852515
23	0x3aca4735	0.0015432598
24	0xbdc62a7b	-0.09676071
25	0xbd22e78a	-0.039771594
26	0x3de62769	0.11237986
27	0xbe4470dd	-0.19183679
28	0xbe32d2f0	-0.17463279
29	0xbcb58063	-0.022155946
30	0xbec4ac68	-0.38412786
31	0xbd0d2e31	-0.03446788

sequential/conv2d_1/Conv2D f4 [32, 3, 3, 32]
0	0x3da94785	0.082655944
1	0x3dc17fd0	0.094482064
2	0x3e12541d	0.14289899
3	0x3d95eea3	0.07320907
4	0x3e7a382d	0.24435492
5	0x3efe541a	0.4967354
6	0x3e878902	0.26471716
7	0x3d6592d1	0.05604822
8	0xbdb8ccce	-0.090234384
9	0xbde30ea1	-0.110867746
10	0x3e721d79	0.23644055
11	0xbca0ab61	-0.01961297
12	0x3e2c58d9	0.16830768
13	0xbd605df0	-0.054777086
14	0x3e50e4c7	0.20399772
15	0x3e3cbbcf	0.18431018
16	0x3e7c96df	0.24666928
17	0xbf236e8f	-0.63840574
18	0x3e42afc6	0.19012365
19	0x3e953f2f	0.29149768
20	0x3d818052	0.06323303
21	0x3e4b8af5	0.19877227
22	0xbcdcdc8d	-0.026960636
23	0xbe1eeac8	-0.1551925
24	0xbbbce636	-0.005764748
25	0xbe77a468	-0.2418381
26	0x3e2ca5cd	0.16860123
27	0x3d705c5f	0.058681842
28	0xbf2fa063	-0.68604106
29	0x3e119b0d	0.14219303
30	0xbd39d96a	-0.045373358
31	0x3df3ff4b	0.11913928
32	0x3cc32ff0	0.02382657
33	0x3d914e83	0.07095053
34	0x3c9566f7	0.018237574
35	0xbd3fffbf	-0.046874758
36	0x3d9fdc23	0.078056596
37	0x3ecb7c8a	0.39743453
38	0xbc820c9c	-0.015875153
39	0xbb506f7a	-0.0031804726
40	0xbe094524	-0.13405281
41	0xbdfd3c47	-0.123650126
42	0x3e803aac	0.25044763
43	0x3dd95a36	0.106129095
44	0xbce552ad	-0.027993524
45	0x3e56386b	0.20919959
46	0x3df7a88c	0.12092695
47	0x3e1c1d98	0.15245664
48	0x3e0f6865	0.14004667
49	0xbed0bcd4	-0.40769064
50	0xbdb92243	-0.09039738
51	0x3e7b9559	0.2456869
52	0x3dc5b6bd	0.09653995
53	0x3e73fc38	0.23826683
54	0xbd150138	-0.036378115
55	0xbe63771e	-0.22213408
56	0x3c628fc5	0.013828223
57	0xbe22fc8c	-0.15916651
58	0x3d151303	0.036395084
59	0x3c99315f	0.0187003
60	0xbf24af59	-0.6433006
61	0x3d06621c	0.03280841
62	0xbdf20869	-0.1181801
63	0x3cf4326d	0.029809201
64	0xbda3e22c	-0.08002123
65	0xbcd4de9b	-0.025985053
66	0x3d3fcbbd	0.04682516
67	0x3d55f54d	0.05223589
68	0xbe59cbc7	-0.21269141
69	0x3e4f3b6e	0.20237514
70	0xbe229f95	-0.15881188
71	0x3d9472be	0.07248448
72	0xbe94d3f5	-0.2906796
73	0x3db837a4	0.089949876
74	0x3e8c5367	0.2740738
75	0x3de41179	0.11136145
76	0xbc0f228f	-0.008736267
77	0x3e0b119f	0.1358094
78	0x3de48f3b	0.111601315
79	0x3d2f445d	0.042789806
80	0x3ddea7c9	0.10871846
81	0xbeeffff1	-0.46874955
82	0xbdf69b65	-0.12041358
83	0x3e84a801	0.25909427
84	0xbb395e6e	-0.0028285044
85	0x3e6a8f72	0.22906283
86	0x3d969de7	0.07354336
87	0xbe8bad7e	-0.27280802
88	0x3d011dbe	0.031522505
89	0xbda7bd93	-0.08190455
90	0x3de2b912	0.110704556
91	0x3e6d3118	0.23163259
92	0xbecc7431	-0.39932397
93	0xbece8465	-0.40335384
94	0xbbfdfc7b	-0.0077510453
95	0x3daaa501	0.08332253
96	0xbc9972c3	-0.01873148
97	0x3e370ba7	0.17875539
98	0x3e065ba9	0.13120903
99	0xbcf17002	-0.029472355
100	0x3e40f646	0.18843946
101	0x3eff8c53	0.49911746
102	0x3e2f5fdc	0.17126411
103	0x3def7e02	0.11693956
104	0x3d8f0550	0.06983435
105	0xbde43a12	-0.111438885
106	0x3ea17d3d	0.31540862
107	0xbe08ba3a	-0.1335229
108	0x3e00fa1f	0.12595414
109	0xbe29634d	-0.16541786
110	0x3e3de821	0.18545581
111	0x3e3e3bec	0.18577546
112	0x3e61d084	0.22052199
113	0xbf04693d	-0.5172308
114	0x3e5c93b1	0.21540715
115	0x3f0d3c13	0.5516979
116	0x3d4ea08c	0.05044608
117	0x3e8c5678	0.2740972
118	0x3d823be2	0.06359078
119	0xbe59b798	-0.21261442
120	0xbc7fc1ac	-0.01561014
121	0xbda84e81	-0.082180984
122	0x3e3f567e	0.18685338
123	0x3e8ac838	0.2710588
124	0xbf12f6e7	-0.57407993
125	0x3da3bde8	0.07995206
126	0x3d43cd3a	0.04780314
127	0x3e0773db	0.13227789
128	0x3cc16394	0.023607053
129	0xbe04d4bc	-0.12971777
130	0xbdbbb4ba	-0.0916533
131	0x3cf3289c	0.02968245
132	0xbd6ff833	-0.05858631
133	0x3e69376f	0.22775052
134	0x3c953c71	0.018217297
135	0xbc11eb40	-0.008906186
136	0xbd78949c	-0.0606886
137	0xbd50f678	-0.0510163
138	0x3e73eebd	0.2382154
139	0xbe3c6093	-0.18396215
140	0x3dbf2790	0.09333718
141	0x3d9d41a2	0.07678534
142	0xbcd33185	-0.025780449
143	0x3cacf736	0.021113973
144	0x3d6cea9e	0.057840936
145	0xbf0a8ca9	-0.5412088
146	0x3d8c26b6	0.06843321
147	0x3e900b49	0.2813361
148	0xbcba02a6	-0.022706341
149	0x3e854b18	0.26033854
150	0x3dd43761	0.10362125
151	0xbecde88a	-0.40216476
152	0x3d48c85b	0.0490192
153	0xbe3b59cd	-0.18295975
154	0x3e117374	0.14204198
155	0xbbbef77f	-0.0058278437
156	0xbeeec08d	-0.4663128
157	0x3da16b83	0.07881834
158	0xbe1567f9	-0.14590444
159	0xbc486939	-0.012232118
160	0xbb1c826d	-0.002388145
161	0xbdd40e10	-0.10354245
162	0xbe16888c	-0.14700526
163	0x3d7b1c61	0.06130636
164	0xbe25e399	-0.16200103
165	0x3e41ac1f	0.18913315
166	0xbc90ffce	-0.017700102
167	0x3d195dc2	0.03744293
168	0xbe66b339	-0.22529306
169	0xbe0ef130	-0.13959193
170	0x3d99b73e	0.07505654
171	0xbdc85fce	-0.09783898
172	0x3d101fc9	0.035186563
173	0x3d924127	0.07141333
174	0xbd2a059c	-0.041509256
175	0x3c887e2c	0.016661726
176	0xbc756fe4	-0.01498029
177	0xbee9c3a4	-0.45657074
178	0xbc9730cc	-0.018455885
179	0x3d809491	0.06278337
180	0xbe159fb8	-0.14611709
181	0x3e4211e8	0.18952143
182	0x3dad71b7	0.08468955
183	0xbebafd6a	-0.36521465
184	0x3ba86387	0.0051388177
185	0xbe8dcc5d	-0.2769498
186	0x3dade557	0.08491009
187	0x3b213fbd	0.0024604641
188	0xbf01af03	-0.5065767
189	0xbe767fae	-0.24072143
190	0xbe4ea8f9	-0.20181645
191	0xbd69fafb	-0.05712412
192	0xbcaf4c91	-0.021398814
193	0xbd46f32d	-0.048571754
194	0x3d2f8470	0.04285091
195	0x3dd4063f	0.10352754
196	0xbd25627c	-0.040377125
197	0x3e9571c4	0.2918836
198	0x3cfdd795	0.030986587
199	0x3e017c54	0.12645084
200	0x3e1eaf1f	0.15496491
201	0xbe30d6e6	-0.17269477
202	0x3e77d462	0.24202111
203	0xbe077506	-0.13228235
204	0x3e219046	0.15777692
205	0x3e3686d7	0.17824875
206	0x3dffcfff	0.12490844
207	0x3de22937	0.11043017
208	0xbd7b0869	-0.061287317
209	0xbf1a0425	-0.60162574
210	0x3d922557	0.07136028
211	0x3e8ab423	0.27090558
212	0xbd9027f1	-0.07038868
213	0x3eb0d46b	0.34537062
214	0x3d659239	0.056047652
215	0xbecf17b8	-0.40447783
216	0x3ccbecdc	0.024893217
217	0xbe81749a	-0.25284272
218	0x3e2d0029	0.16894592
219	0x3e281378	0.16413677
220	0xbeedb387	-0.4642603
221	0x3b8e86d7	0.0043495703
222	0xbe2cde27	-0.1688162
223	0x3d934041	0.0718999
224	0xbd48e91f	-0.049050447
225	0xbda2919a	-0.079379275
226	0xbd86f1c5	-0.06589083
227	0x3bac2ef5	0.005254621
228	0xbe4084bb	-0.18800633
229	0xbe82f19a	-0.25574952
230	0xbe041838	-0.12899864
231	0x3d09c5f8	0.033636063
232	0xbec6a1db	-0.3879536
233	0xbc4d4037	-0.012527517
234	0x3dab9478	0.083779275
235	0xbea6bc79	-0.32565668
236	0x3d9dad60	0.07699084
237	0x3dc7452c	0.0972999
238	0x3d9d2b8b	0.07674321
239	0x3db89080	0.09011936
240	0xbd1a2ebd	-0.03764223
241	0xbf12fe72	-0.574195
242	0xbd493520	-0.04912293
243	0x3e1f700a	0.15570083
244	0xbe0a9768	-0.1353432
245	0x3de4473a	0.11146398
246	0xbd4ca8fb	-0.04996584
247	0xbf285087	-0.65747875
248	0xbc5b51a8	-0.013386168
249	0xbe9db4ad	-0.30801907
250	0xbda0ede0	-0.07857871
251	0xbdf62598	-0.12018889
252	0xbf03c382	-0.51470196
253	0xbc800b45	-0.015630374
254	0xbc022e01	-0.0079455385
255	0x3c9cb3be	0.019128677

sequential/conv2d_2/Conv2D f4 [32, 3, 3, 32]
0	0x3de3d05a	0.11123724
1	0x3d94be4a	0.07262857
2	0x3e2f859d	0.17140813
3	0x3de078fd	0.10960577
4	0xbe6c964e	-0.23104212
5	0x3e28c680	0.16481972
6	0xbe8f0265	-0.27931514
7	0xbdaa0fc2	-0.08303787
8	0x3dd182d0	0.10230029
9	0xbe660ab3	-0.22465019
10	0xbe437a29	-0.19089569
11	0x3d9fa958	0.07795972
12	0xbd9b0a13	-0.07570281
13	0xbe40ceab	-0.18828838
14	0x3d7cbd71	0.061704103
15	0x3c32e672	0.0109192
16	0x3e1b243d	0.15150543
17	0xbebf7504	-0.37393963
18	0x3da62e0d	0.08114252
19	0x3df03c27	0.11730223
20	0x3e27773b	0.16354077
21	0xbc1d439e	-0.009598641
22	0xbeae70d0	-0.34070444
23	0x3bd7bfa0	0.006584123
24	0x3e811fa1	0.25219443
25	0xbe9954d4	-0.2994753
26	0xbcc66208	-0.024216667
27	0x3e23863b	0.15969174
28	0x3df98a7b	0.12184616
29	0x3de460e4	0.11151293
30	0xbe981b87	-0.29708502
31	0xbe9f56b4	-0.31120837
32	0x3d7a18e4	0.061058894
33	0x3a56a298	0.00081876805
34	0x3c811efe	0.015761849
35	0xbebfc8c7	-0.37457868
36	0x3d0cdc9a	0.03439007
37	0xbc2ca3b9	-0.010537081
38	0xbcbc6a32	-0.022999857
39	0xbd96b601	-0.07358933
40	0x3d3b17d4	0.04567702
41	0xbe682aec	-0.22672623
42	0x3dca0351	0.09863914
43	0x3a8bf8af	0.0010678972
44	0xbc93cb92	-0.018041406
45	0xbe8f2135	-0.27955022
46	0x3e1130b5	0.14178737
47	0x3dbfe5c4	0.09369996
48	0xbe36c330	-0.17847896
49	0x3da5d364	0.0809696
50	0xbd78edfe	-0.060773842
51	0xbdbf4f72	-0.09341325
52	0xbe191f90	-0.14953446
53	0xbe7a715c	-0.24457306
54	0x3d9a901e	0.075470194
55	0xbddc1d7b	-0.107478105
56	0xbdbefa32	-0.09325065
57	0x3e5798b0	0.2105434
58	0xbcf3ea4b	-0.029774806
59	0xbe631907	-0.22177516
60	0x3ca38d0a	0.019964714
61	0xbc52eb8c	-0.012873542
62	0x3dcf765e	0.101299986
63	0xbb3bd3c2	-0.0028660153
64	0xbe8cccfc	-0.2750014
65	0x3d60999b	0.05483399
66	0x3e28499a	0.16434327
67	0x3dc20bdf	0.094749205
68	0x3e18a806	0.14907846
69	0x3e1e1a1a	0.15439644
70	0xba2a738d	-0.0006502204
71	0x3ba18c49	0.0049300534
72	0x3dc1e6f0	0.09467876
73	0x3e8244a6	0.25443
74	0x3c9a6237	0.01884566
75	0x3e3332f0	0.174999
76	0xbdee525a	-0.11636801
77	0x3e45a485	0.1930104
78	0x3df5d473	0.12003412
79	0x3e55ad26	0.20866832
80	0x3dadb9dc	0.084827155
81	0x3db383f5	0.08765403
82	0xbe90f0a5	-0.28308597
83	0x3e5c68f4	0.21524411
84	0xbe1afdf6	-0.15135941
85	0xbcc78aea	-0.024358232
86	0x3dd70d73	0.10500612
87	0x3d4dc752	0.050238915
88	0x3cef6974	0.029225089
89	0x3e28e7d1	0.16494681
90	0xbd1cc8fb	-0.038277607
91	0xbd274a8f	-0.04084259
92	0x3d946b60	0.07247043
93	0x3e53c507	0.20680629
94	0x3e2a667a	0.16640654
95	0x3dccebc3	0.100059055
96	0x3c3fcc47	0.011706418
97	0x3d7816c8	0.0605686
98	0xbd61a46a	-0.055088438
99	0xbe203ab2	-0.1564739
100	0x3c57c73e	0.013170062
101	0x3e00469a	0.12526932
102	0xbe0fa8e7	-0.14029275
103	0x3c16dafb	0.009207482
104	0xbc23bc71	-0.009993658
105	0xbe07bf83	-0.1325665
106	0x3df2484b	0.11830195
107	0xbcfbb939	-0.03072797
108	0x3d942b36	0.07234804
109	0x3d0255be	0.03182005
110	0x3e9c8a64	0.30574334
111	0xbdd08591	-0.10181726
112	0x3dc7d4c4	0.09757379
113	0xbdc25aee	-0.0949
114	0x3d023d9f	0.031797048
115	0xbe3c890e	-0.18411657
116	0x3dff1852	0.124558106
117	0xbd6a2490	-0.057163775
118	0xbdbd1608	-0.09232718
119	0xbde32a7e	-0.11092089
120	0xbdcd05a4	-0.100108415
121	0xbd8a082a	-0.067398384
122	0x3e3012c4	0.17194659
123	0x3d1bda86	0.038050197
124	0xbda9f97c	-0.082995385
125	0xbc1b1314	-0.009464998
126	0xbd81d156	-0.06338756
127	0xbd271952	-0.04079563
128	0xbf0740e2	-0.5283338
129	0x3c20175b	0.009771193
130	0xbd10d737	-0.035361495
131	0xbedfb4f8	-0.43692756
132	0xbe3ad329	-0.18244614
133	0xbeca005b	-0.39453396
134	0xbed1e891	-0.40997747
135	0x3cf735a6	0.030176949
136	0xbe0cb310	-0.13740182
137	0xbe87dfda	-0.26537973
138	0xbe756396	-0.2396377
139	0xbe50f443	-0.20405678
140	0xbea60ead	-0.32433072
141	0xbd0f1d99	-0.034940336
142	0xbe0d28c5	-0.13785084
143	0xbd204331	-0.03912658
144	0xbe3bce5e	-0.18340442
145	0xbdbd5e43	-0.092464946
146	0xbe162c11	-0.14665247
147	0xbe8bfdb9	-0.27342013
148	0xbdca0780	-0.09864712
149	0xbe783e2a	-0.24242464
150	0x3de102b7	0.10986846
151	0xba06c094	-0.0005140391
152	0xbf21a7a8	-0.6314645
153	0xbc39ef26	-0.011348521
154	0xbd0552c0	-0.03254962
155	0xbe00836d	-0.12550135
156	0xbcd0c018	-0.025482222
157	0xbe79f24a	-0.24408832
158	0x3d1257a0	0.035728097
159	0x3dc9e2a3	0.09857681
160	0xbe8d66c7	-0.27617475
161	0x3d99e2fa	0.075139955
162	0xbe1fcd35	-0.15605624
163	0xbe092d14	-0.13396102
164	0xbceda83d	-0.029010886
165	0xbeee5483	-0.46548852
166	0xbae029a1	-0.001710225
167	0xbca5587c	-0.020183794
168	0xbdeaeb34	-0.11470643
169	0x3ca29fe2	0.019851629
170	0x3c69a4db	0.014260496
171	0xbe8a2291	-0.26979497
172	0xbe6d7a33	-0.23191147
173	0xbd85e8b8	-0.06538528
174	0x3e0fdaa3	0.14048247
175	0x3e885ada	0.26631814
176	0x3e80ae1a	0.2513283
177	0x3de1da3c	0.11027953
178	0xbde6476d	-0.11244092
179	0xbe07e775	-0.13271888
180	0x3d4d70a5	0.050156254
181	0xbe09259e	-0.13393256
182	0x3e7e7f11	0.2485316
183	0x3dfce79e	0.12348865
184	0xbe6f790a	-0.23386016
185	0x3e7fd2fe	0.24982831
186	0x3eb9e1f3	0.36305198
187	0xbdb0f773	-0.08640947
188	0xbdb722e7	-0.08942204
189	0xbe9c57c4	-0.3053571
190	0x3e64a64b	0.2232906
191	0x3e2fde0f	0.17174552
192	0xbdfb9e62	-0.122860685
193	0x3d7a6fd4	0.061141804
194	0x3e595a53	0.21225862
195	0x3d6e8272	0.05822987
196	0xbdc8864b	-0.09791239
197	0xbd92ad30	-0.07161939
198	0xbdf6c0e0	-0.12048507
199	0xbd398565	-0.04529323
200	0xbd64d470	-0.05586666
201	0xbe937a87	-0.28804418
202	0xbe25da78	-0.1619662
203	0xbc0fc65b	-0.008775319
204	0xbe3cb242	-0.18427375
205	0x3de90a11	0.11378873
206	0x3cefebea	0.029287297
207	0xbe2a5bc1	-0.16636564
208	0x3b8a8ae4	0.004227983
209	0xbdd721c6	-0.10504489
210	0x3d024799	0.031806562
211	0x3d1365c4	0.035985723
212	0xbe6cedc8	-0.23137581
213	0x3dddd392	0.108313695
214	0xbdf85386	-0.12125306
215	0xbded61c6	-0.115909144
216	0xba6484f0	-0.0008717319
217	0xbd40d45a	-0.047077514
218	0xbe0700cb	-0.13183896
219	0xbce97803	-0.028499609
220	0xbcf67b44	-0.030088075
221	0x3cb78a40	0.02240479
222	0xbe85800b	-0.26074252
223	0xbe4edaf8	-0.20200717
224	0xbeb316b2	-0.34978253
225	0xbcf279cc	-0.029599093
226	0xbc023e49	-0.00794942
227	0xbde66996	-0.11250608
228	0xbe45e378	-0.19325054
229	0xbe3f6762	-0.18691781
230	0xbea94b6d	-0.33065358
231	0xbcb82f5f	-0.022483526
232	0xbd559673	-0.052145433
233	0xbeab4948	-0.33454347
234	0xbc2ff50d	-0.010739577
235	0x3d4fbca8	0.050717026
236	0xbed6805d	-0.41894808
237	0xbdce42d2	-0.10071339
238	0xbe168083	-0.14697461
239	0x3d30eebb	0.04319642
240	0x3d60e20a	0.054903068
241	0xbd719c48	-0.058986932
242	0xbb4725dd	-0.0030387559
243	0xbdac379b	-0.084090434
244	0xbe077fe5	-0.13232382
245	0xbd8ac53a	-0.06775899
246	0xbdef0339	-0.116705365
247	0xbe0ed470	-0.13948226
248	0xbe106571	-0.14101197
249	0x3d1696b2	0.036764808
250	0xbe3d05a3	-0.18459181
251	0xbe5e3bd5	-0.21702512
252	0xbe370443	-0.1787272
253	0xbd54d6b4	-0.05196257
254	0x3d218867	0.039436724
255	0x3d510a75	0.051035363

sequential/dense/BiasAdd/ReadVariableOp f4 [128]
0	0x3de8de25	0.11370496
1	0x3e2125d2	0.15737084
2	0xbe569e47	-0.20958816
3	0xbd2276d6	-0.039664112
4	0x3e95904f	0.2921166
5	0xbddcab94	-0.107749134
6	0x3e6d03c2	0.23145965
7	0xbd9eae67	-0.07748108
8	0xbdc89b95	-0.097953
9	0x3e5de3dc	0.21668953
10	0x3e1aa39d	0.15101476
11	0xbd3ddaaa	-0.046351112
12	0xbcd3d191	-0.025856765
13	0x3d917144	0.07101682
14	0x3e0e6d4c	0.13908881
15	0x3e2c0f20	0.16802645
16	0x3c583446	0.013196057
17	0x3d2f804c	0.042846963
18	0xbc60f3d7	-0.013730011
19	0xbead91a6	-0.33900183
20	0xbdc927df	-0.09822058
21	0x3c1014a8	0.008793987
22	0x3c066a50	0.008204058
23	0xbc8d043b	-0.017213931
24	0xbc7b292f	-0.015329643
25	0x3d9b993c	0.075975865
26	0xbd67dac6	-0.056605123
27	0x3e8293ec	0.2550348
28	0x3e05a2ff	0.1305046
29	0xbd362ad5	-0.04447444
30	0xbdd05f36	-0.1017441
31	0xbdb9c02b	-0.09069856
32	0xbe4435b5	-0.19161113
33	0xbd2e76d2	-0.042593785
34	0x3d920f5b	0.07131835
35	0x3dab7fee	0.0837401
36	0xbd9d9576	-0.07694523
37	0xbc88d8a6	-0.016704869
38	0x3de9fb5c	0.11424896
39	0xbd93ec1d	-0.072227694
40	0xbe81faed	-0.25386754
41	0x3e0cd852	0.13754395
42	0xbd04b809	-0.032402072
43	0xbba1d8dc	-0.0049391817
44	0x3d553aec	0.052058145
45	0xbd0e7bc1	-0.03478599
46	0xbd17c340	-0.03705144
47	0xbd63eee1	-0.055647735
48	0x3ddcf9ac	0.10789809
49	0xbe0eb3e3	-0.13935809
50	0x3d25880b	0.040412944
51	0x3d434f3a	0.04768298
52	0xbce3efc3	-0.027824288
53	0xbb8d13c6	-0.0043053357
54	0xbd6c33f6	-0.05766674
55	0x3dbfb937	0.09361499
56	0x3d9ecb5d	0.07753632
57	0xbbcc0313	-0.0062259524
58	0xbcbe6221	-0.02324015
59	0xbcb6a424	-0.022295065
60	0xbbe5ad6f	-0.0070092003
61	0xbd93c86a	-0.0721596
62	0xbcf91d41	-0.030409457
63	0x3e16350d	0.14668675
64	0xbe38b4d4	-0.1803773
65	0xbd8494a2	-0.06473662
66	0xbdf66d9a	-0.120326236
67	0xbc8dcc7f	-0.017309425
68	0x3ca72ff9	0.020408617
69	0xbe0f7ff7	-0.14013658
70	0x3d274777	0.04083964
71	0xbdcabcc0	-0.098992825
72	0x3c5a97c5	0.013341849
73	0x3d441016	0.047866903
74	0xbcc041c2	-0.023468856
75	0x3d490f47	0.049086835
76	0x3cb2e1dc	0.021836214
77	0x3e7ecd88	0.24883091
78	0xbc8151dd	-0.015786106
79	0x3d5487e2	0.0518874
80	0x3df46010	0.11932385
81	0x3e0429c0	0.12906551
82	0xbca9b62f	-0.020716755
83	0xbdda24c5	-0.106515445
84	0xbdccf181	-0.10007001
85	0xbc065670	-0.008199319
86	0xbd8c25e1	-0.06843162
87	0xbd357169	-0.04429761
88	0x3decbdc5	0.11559633
89	0xbcf696d2	-0.030101214
90	0xbb15e81b	-0.0022873941
91	0xbd534635	-0.051580627
92	0x3dfe2b64	0.1241062
93	0xbdd35e07	-0.10320669
94	0xbcdc0d19	-0.026861714
95	0xbd755dfb	-0.05990408
96	0xbd9fc4c1	-0.078012
97	0xbda1922f	-0.078892104
98	0xbcf7e21c	-0.030259185
99	0xbde06fc5	-0.10958818
100	0x3e4ec546	0.20192441
101	0xbd386e4c	-0.045027062
102	0x3decbcf1	0.11559475
103	0xbd952533	-0.07282486
104	0x393d5b18	0.0001805838
105	0xbdd4eb37	-0.10396426
106	0xbcf67461	-0.03008479
107	0x3dc3edae	0.09566818
108	0x3d9feef1	0.07809246
109	0x3e31c669	0.17360844
110	0x3da8fc2e	0.082512245
111	0xbd942d1d	-0.07235167
112	0xbcffa68f	-0.031207351
113	0xbd08b5fa	-0.03337667
114	0xbd2d72f8	-0.04234597
115	0x3d802cea	0.06258567
116	0x3db0dc0c	0.086357206
117	0xbe4a4fc4	-0.1975699
118	0xbd1a9bfd	-0.03774642
119	0x3e4fed02	0.20305255
120	0x3dda6362	0.10663487
121	0xbd09a939	-0.03360865
122	0xbe0b006f	-0.13574384
123	0xbbdd756b	-0.006758382
124	0x3e04f94e	0.12985727
125	0x3eaaa45f	0.3332853
126	0xbdef876f	-0.11695754
127	0xbd9ab998	-0.075549304

sequential/dense_1/BiasAdd/ReadVariableOp f4 [131]
0	0x3ca7bac5	0.0204748
1	0x3da12042	0.07867481
2	0x3dabd8af	0.083909385
3	0x3c065c56	0.008200726
4	0x3d124e2d	0.035719085
5	0xbdc3c3ad	-0.095588066
6	0x3c8677a2	0.016414467
7	0x3d9b291c	0.075762
8	0xbd0e94e9	-0.03480998
9	0xbaa34ac6	-0.0012458197
10	0xbd988087	-0.0744639
11	0x3e3ea343	0.18616967
12	0xbdb8912b	-0.090120636
13	0x3d64ac82	0.05582858
14	0xbc81c3c2	-0.015840415
15	0xbd932dc2	-0.07186462
16	0xbd459e09	-0.048246417
17	0xbe6e55ac	-0.23274869
18	0xbd737557	-0.059438076
19	0xbdbcb012	-0.0921327
20	0xbc5edea8	-0.01360289
21	0x3bdec01a	0.0067978026
22	0xbdb5cd0b	-0.088769995
23	0x3e1ab1d0	0.15106893
24	0xbdde78e2	-0.108629
25	0x3e0abe67	0.13549195
26	0xbd972db1	-0.07381762
27	0x3baf3b0c	0.005347615
28	0x3cfd806b	0.030945024
29	0xbcb018a6	-0.021496128
30	0xbc40822d	-0.011749786
31	0xbce11eb8	-0.027480468
32	0xbcde1900	-0.02711153
33	0xbe2c47e6	-0.16824302
34	0x3d0775a2	0.033071168
35	0xbc946323	-0.018113678
36	0xbde3df81	-0.11126614
37	0xbbed22f8	-0.0072368346
38	0xbc545114	-0.012958784
39	0x3d9b5d09	0.075861044
40	0xbd9c3c6a	-0.076287106
41	0xbe2f2909	-0.17105497
42	0x3d63c82c	0.05561082
43	0xbd3d0674	-0.046148732
44	0xbb81d38e	-0.003961987
45	0x3bce152a	0.006289144
46	0x3d906e04	0.07052234
47	0xbd82b8fb	-0.063829385
48	0x3d87c3a5	0.06629113
49	0xbcab7ba3	-0.020932978
50	0x3cd7a853	0.02632538
51	0xbd6b42ad	-0.057436634
52	0xbb7659dc	-0.0037590181
53	0x3c6424ed	0.013924819
54	0xbe29ccf7	-0.16582094
55	0xbdc562d9	-0.09637994
56	0x3d0acfcd	0.03388958
57	0x3dc10d1a	0.09426327
58	0xbdc4b5bb	-0.09604975
59	0x3c5d8d1b	0.013522412
60	0xbe1eed88	-0.15520298
61	0xbce2dc0f	-0.027692823
62	0x3de0aedc	0.10970852
63	0x3c9754d6	0.01847307
64	0xbe3b35ac	-0.18282193
65	0xbd24f0fb	-0.04026888
66	0x3cc389b0	0.023869365
67	0xbe03bff4	-0.12866193
68	0xbc10574d	-0.008809877
69	0x3c37905b	0.011203851
70	0xbd16573b	-0.036704283
71	0x3d70d70a	0.058798827
72	0x3dbdf9ab	0.09276136
73	0xbbe73119	-0.0070554134
74	0xbce0218a	-0.027359743
75	0x3dbb3fab	0.09143003
76	0x3de32317	0.11090677
77	0xbd753398	-0.059863657
78	0xbd924183	-0.071414016
79	0xbdc6469d	-0.09681437
80	0x3e386328	0.18006575
81	0xbd215c86	-0.039394878
82	0x3e5e75b4	0.21724588
83	0xbcf5e92d	-0.030018413
84	0xbe11e8a2	-0.14248899
85	0x3d3dd889	0.046349082
86	0xbd699a0e	-0.057031684
87	0xbe0cb8b2	-0.1374233
88	0xbe0b9760	-0.13631964
89	0x3cd7f050	0.026359707
90	0xbd442f2c	-0.04789655
91	0xbad63c08	-0.0016344795
92	0xbd6f42e6	-0.05841341
93	0xbc355ce9	-0.011069515
94	0x3e6855f6	0.22689041
95	0x3b99dbb1	0.0046953787
96	0xbe0dd37a	-0.13850203
97	0x3bd73d9b	0.0065686232
98	0xbc1ae7c6	-0.009454673
99	0x3e21952c	0.15779561
100	0x3e06ea02	0.13175204
101	0xbd245685	-0.040121574
102	0xbc0c376e	-0.008558137
103	0xbd38b766	-0.045096777
104	0x3d16cf33	0.036818694
105	0xbcf41946	-0.029797208
106	0xbdcc5adb	-0.09978267
107	0x3d5deb0d	0.05417924
108	0x3d5c529d	0.053789724
109	0xbc0fa0e4	-0.008766387
110	0xbdebeed0	-0.11520159
111	0xbdb2ba90	-0.0872699
112	0x3dc81125	0.09768895
113	0xbe36d5d2	-0.17855003
114	0x3bfa9176	0.007646735
115	0xbd58d44f	-0.05293685
116	0xbd73e6a8	-0.059546143
117	0x3dfaa235	0.1223797
118	0xbd9018c4	-0.07035974
119	0x3d8557e3	0.06510904
120	0xbdc272e5	-0.09494571
121	0x3cee9fa8	0.029128864
122	0xbd68d8c7	-0.05684736
123	0x3d6ef00a	0.058334388
124	0xbddc4d06	-0.107568786
125	0xbd901ea7	-0.070370965
126	0x3cd2ce41	0.025733115
127	0xbd3244d4	-0.04352267
128	0x3c69badb	0.014265741
129	0x3d244e38	0.040113658
130	0xbdd808d8	-0.10548562

sequential/dense/MatMul f4 [128, 128]
0	0x3e408300	0.18799973
1	0x3e49f2b5	0.19721492
2	0x3e67bd3f	0.22630785
3	0x3e5e8347	0.21729766
4	0x3ded2ebf	0.11581182
5	0x3e7b148b	0.24519555
6	0xbd483f2d	-0.048888374
7	0x3d3b6c37	0.0457575
8	0xbcdbe45f	-0.026842294
9	0x3e4e3f19	0.20141257
10	0xbe6f189a	-0.23349229
11	0xbe05da8e	-0.13071653
12	0x3e5f69ea	0.21817747
13	0x3e10fe67	0.14159547
14	0xbe19b391	-0.15009905
15	0x3e8f588b	0.2799724
16	0x3b214f94	0.0024614083
17	0x3ba8f5e8	0.0051562674
18	0x3ef02ee2	0.4691077
19	0xbddd60c6	-0.10809474
20	0x3e8bbee2	0.2729407
21	0x3ca71285	0.020394573
22	0x3e9e0914	0.308663
23	0x3e2f7f5b	0.17138426
24	0xbd293235	-0.041307647
25	0x3e3ff88b	0.18747155
26	0x3d7a1ac5	0.061060686
27	0xbd27d2be	-0.040972464
28	0x3d66cb65	0.056346316
29	0xbc972915	-0.018452207
30	0x3cbd86c0	0.023135543
31	0xbbcd07b4	-0.006257022
32	0xbe084d3f	-0.13310717
33	0xbf3eb52b	-0.7449519
34	0xbd8cd242	-0.06876041
35	0xbde31ef6	-0.1108989
36	0x3d2a159b	0.04152451
37	0x3df5a40a	0.119941786
38	0x3da2f9c9	0.07957799
39	0x3e8c6c5f	0.2742643
40	0x3d07ea4f	0.03318244
41	0x3d827c79	0.063713975
42	0x3e4adb6e	0.19810268
43	0xbe1da609	-0.15395369
44	0xbe8b1117	-0.27161476
45	0x3e023ac3	0.12717728
46	0x3e0f8e65	0.14019163
47	0x3e5cebfe	0.21574399
48	0xbe3288fe	-0.17435071
49	0xbd4ae749	-0.049536977
50	0x3e347838	0.17623985
51	0xbd989076	-0.07449429
52	0x3e5b27aa	0.2140185
53	0x3e1a0819	0.15042152
54	0xbe91f43e	-0.28506655
55	0x3e94e521	0.2908106
56	0xbe226f62	-0.15862802
57	0xbd2ef2be	-0.042711966
58	0xbdeea0b2	-0.11651744
59	0xbdb2c013	-0.087280415
60	0xbd8caa12	-0.06868376
61	0xbe136ce4	-0.14397007
62	0xbea876dd	-0.32903185
63	0x3e320c63	0.17387538
64	0x3dcd86c4	0.1003547
65	0xbded2739	-0.11579747
66	0xbdcf77c1	-0.10130263
67	0xbba3b107	-0.0049954685
68	0x3dfb282a	0.1226352
69	0xbe170bdd	-0.14750619
70	0x3dd537cf	0.10411035
71	0x3e5436ba	0.20724002
72	0x3d372b54	0.044719055
73	0x3c817716	0.015803855
74	0x3db2969c	0.08720133
75	0x3d38d1c9	0.04512194
76	0xbc820902	-0.015873436
77	0x38d71de4	0.000102575665
78	0x3cae1414	0.021249808
79	0xbc88ef5e	-0.016715702
80	0x3db8f232	0.0903057
81	0x3ddf4ad9	0.10902948
82	0x3da329d6	0.07966964
83	0x3ec47747	0.3837225
84	0xbd463788	-0.048392802
85	0xbdd2e666	-0.10297851
86	0xbe13cb71	-0.14433075
87	0x3d051884	0.032494083
88	0x3ea15f88	0.31518197
89	0xbd1d948e	-0.03847175
90	0xbd2455f8	-0.04012105
91	0x3e931ea0	0.28734303
92	0xbe5b81c9	-0.21436228
93	0xbd503984	-0.0508361
94	0x3e9b2d03	0.3030778
95	0xbd621f07	-0.05520537
96	0xbe26f9f8	-0.16306293
97	0xbe079985	-0.13242157
98	0xbc7e7f8a	-0.015533337
99	0xbe070145	-0.13184078
100	0xbe351c22	-0.17686513
101	0x3e66d402	0.22541812
102	0x3e41baea	0.18918958
103	0x3ee84cc9	0.45371082
104	0x3d19fdc4	0.037595525
105	0xbea3f18e	-0.3202023
106	0xbe7937b7	-0.2433766
107	0x3dbe85c0	0.093028545
108	0xbeca3b55	-0.39498392
109	0xbe3170e8	-0.17328227
110	0xbebc7af1	-0.36812547
111	0xbe2df7fa	-0.16989127
112	0xbd318e86	-0.04334881
113	0x3eb540a2	0.35400873
114	0xbe266b65	-0.16251905
115	0xbd49fc33	-0.04931278
116	0xbe70c803	-0.23513798
117	0x3ddc82f1	0.107671626
118	0xbddde4fa	-0.108346894
119	0xbe459b95	-0.19297631
120	0x3e8baa58	0.272784
121	0x3cc5982f	0.024120418
122	0xbd7edadd	-0.062220443
123	0xbdd8697e	-0.10566996
124	0xbebd3c27	-0.36959955
125	0xbdddbfac	-0.10827574
126	0x3e1935f8	0.14961994
127	0xbdf37044	-0.11886647
128	0xbdf30e5f	-0.118679754
129	0x3d7f4a60	0.06232679
130	0xbe2320a6	-0.15930423
131	0xbb8d16f8	-0.0043057166
132	0xbd99bc99	-0.07506675
133	0xbd965cc9	-0.07341916
134	0x3d8ba6ed	0.06818948
135	0x3d804389	0.06262881
136	0xbd44f1e7	-0.04808226
137	0xbe6a2955	-0.2286733
138	0xbdd36261	-0.10321499
139	0xbdfa8957	-0.12233227
140	0xbe52ac4f	-0.20573543
141	0xbda3a1af	-0.07989823
142	0x3cf6cf64	0.030128188
143	0x3deed61e	0.11661933
144	0x3cc81642	0.024424676
145	0x3e4b6cf5	0.19865783
146	0x3d50ba9a	0.050959207
147	0xbe670a72	-0.22562578
148	0xbbfd2325	-0.007725137
149	0xbd267635	-0.040640075
150	0xbd142c15	-0.036174852
151	0x3ceb5d28	0.028730944
152	0x3c90c183	0.017670399
153	0xbdf136b6	-0.117780134
154	0x3e84fa8e	0.25972408
155	0x3c8202e3	0.015870517
156	0xbd816021	-0.06317163
157	0xbe0241d8	-0.1272043
158	0xbe1db522	-0.15401128
159	0x3e07e3af	0.13270448
160	0xbe26714d	-0.16254158
161	0x3df1b361	0.11801792
162	0xbe862873	-0.26202735
163	0x3e9d3de5	0.30711284
164	0xbe755d26	-0.23961315
165	0xbe41adbc	-0.1891393
166	0x3e96e754	0.29473364
167	0x3da84b1f	0.08217453
168	0x3df54f85	0.11978058
169	0xbe46f62b	-0.19429843
170	0x3dc6b855	0.09703127
171	0x3dc9baa4	0.09850052
172	0xbdca988a	-0.09892376
173	0xbe9e7146	-0.30945796
174	0xbeafecee	-0.3436045
175	0x3cf66ccf	0.03008118
176	0x3d022a62	0.0317787
177	0xbe5858d7	-0.2112764
178	0xbc0dff24	-0.008666787
179	0xbe6b0ea5	-0.22954805
180	0xbe28f41e	-0.16499373
181	0x3e08c3c9	0.13355936
182	0xbd8489d4	-0.06471601
183	0xbe735a18	-0.23764837
184	0x3d0e24b2	0.034702964
185	0xbdb9be4b	-0.09069499
186	0xbe206b6b	-0.15665977
187	0xbe5c0b06	-0.2148858
188	0x3d9fabd8	0.077964485
189	0x3e79f729	0.2441069
190	0x3e4befc7	0.19915687
191	0x3d3de91c	0.04636489
192	0xbe95cf32	-0.2925964
193	0x3d435293	0.04768617
194	0xbdb67f11	-0.08910955
195	0xbd9b0b75	-0.07570545
196	0x3cd45b06	0.02592231
197	0xbd9b1955	-0.07573191
198	0x3e14f0fe	0.14545056
199	0x3c16d202	0.009205343
200	0x3d44f4f8	0.048085183
201	0xbe4a42a6	-0.19751987
202	0x3d8f0ef1	0.06985272
203	0x3e5f2416	0.2179111
204	0x3dea322c	0.11435351
205	0xbe0bd687	-0.13656054
206	0xbe55b971	-0.20871522
207	0xbecd444d	-0.40091172
208	0xbedbaa90	-0.42903566
209	0xbd6c99dd	-0.057763923
210	0xbe0d69b2	-0.13809851
211	0x3db9bb1d	0.09068892
212	0x3cda63c5	0.026658902
213	0x3e8f6b84	0.28011715
214	0x3d05c7f9	0.032661412
215	0x3dae66be	0.0851569
216	0x3bc25de3	0.0059316023
217	0xbd76f717	-0.060294237
218	0x3da2ed6d	0.079554416
219	0xbdcf4cf2	-0.10122098
220	0x3df8502e	0.12124668
221	0x3c0859db	0.008322204
222	0x3d50cb96	0.050975405
223	0xbe4211a5	-0.18952043
224	0x3e0dbefe	0.13842389
225	0x3e66d76b	0.22543113
226	0x3e1a10e9	0.15045513
227	0xb8a14f69	-7.6918695e-05
228	0xbe049a06	-0.1294938
229	0x3d993b06	0.07481961
230	0x3ed6e689	0.4197276
231	0x3e152ea4	0.14568573
232	0x3b7ab892	0.0038256985
233	0xbe8fcebf	-0.28087422
234	0xbe75a5b7	-0.23988996
235	0xbe2e7c0b	-0.17039506
236	0x3e745456	0.23860297
237	0x3dc1834d	0.09448872
238	0x3e5b8e42	0.21440986
239	0x3deec4b0	0.11658609
240	0xbd8d1313	-0.06888404
241	0x3e17e630	0.14833903
242	0xbea20388	-0.3164332
243	0x3d71bc18	0.05901727
244	0xbe43aea4	-0.19109589
245	0x3d94b1ff	0.072605126
246	0x3e59fc65	0.21287687
247	0x3e1d71d0	0.15375447
248	0x3e0dfa14	0.13864928
249	0xbd445ad0	-0.047938168
250	0x3d99a795	0.07502667
251	0xbe28e0b7	-0.16491972
252	0xbe32a736	-0.17446598
253	0xbe1fde76	-0.15612206
254	0xbd4db6de	-0.050223224
255	0x3de52133	0.11187973

sequential/dense_1/MatMul f4 [131, 128]
0	0xbe417b97	-0.18894802
1	0xbf2c78fe	-0.6737212
2	0x3d91fe17	0.07128542
3	0xbe9b4512	-0.30326134
4	0xbed10a00	-0.40827942
5	0xbe8e7159	-0.27820852
6	0xbf317cf5	-0.69331294
7	0xbee63cd2	-0.44968277
8	0xbd5a8b82	-0.0533557
9	0xbe7731f1	-0.24140145
10	0xbe835234	-0.25648654
11	0x3dc56459	0.096382804
12	0x3c49a884	0.012308244
13	0x3dedec64	0.116173536
14	0x3df9c648	0.12196022
15	0xbd70bbd4	-0.058772877
16	0xbd4ffdda	-0.0507792
17	0xbed9f48a	-0.4256938
18	0xbdaff48d	-0.08591566
19	0xbde6432f	-0.11243283
20	0xbf1031e7	-0.56326145
21	0x3e0a6a48	0.13517106
22	0x3e70c2be	0.23511788
23	0x3d3ea7f7	0.046546903
24	0xbd4a78c7	-0.04943159
25	0xbf6b7dcf	-0.91988844
26	0xbf182364	-0.59429
27	0xbea635c9	-0.3246291
28	0x3ce7d699	0.02830057
29	0xbea872c8	-0.3290007
30	0xba08a079	-0.00052119006
31	0xbea675d6	-0.32511777
32	0xbe0faef2	-0.1403158
33	0xbddf1c23	-0.108940385
34	0xbe5b9bd6	-0.21446165
35	0x3d9c8965	0.076433934
36	0x3e136134	0.14392549
37	0xbf003f49	-0.50096565
38	0xbdaecae7	-0.08534794
39	0xbb0404ba	-0.0020144419
40	0x3cac6b5e	0.02104729
41	0xbec07d8d	-0.37595788
42	0xbe96de77	-0.29466602
43	0xbdd600b8	-0.10449356
44	0xbded4146	-0.115847155
45	0xbdc6959b	-0.09696504
46	0xbc50ab3f	-0.012736141
47	0x3e0328bc	0.12808508
48	0x3dcc592b	0.09977945
49	0x3dd395d6	0.10331313
50	0xbe0c6d29	-0.13713516
51	0xbed52b8c	-0.41634786
52	0xbd620aef	-0.05518621
53	0x3e50d87d	0.20395084
54	0x3ddfd44f	0.109291665
55	0xbf0156c3	-0.5052301
56	0xbeadf9a4	-0.33979523
57	0x3dc453e2	0.09586312
58	0xbec2dd3c	-0.38059413
59	0xbd9db928	-0.077013314
60	0xbedbf24d	-0.42958298
61	0xbe7f7462	-0.2494674
62	0xbd74d1fa	-0.05977056
63	0x3e4d3aa5	0.20041902
64	0x3d3b13a6	0.045673035
65	0x3e3fb159	0.18719997
66	0x3dd9d8c4	0.10637048
67	0xbed9d749	-0.42547062
68	0x3e24b334	0.16083986
69	0xbeb59b69	-0.3547013
70	0x3c9cdeba	0.019149173
71	0xbc543742	-0.012952628
72	0x3def227d	0.116765
73	0xbf375deb	-0.7162768
74	0xbeae4935	-0.34040228
75	0xbe77e2de	-0.24207637
76	0xbe3e09cb	-0.18558423
77	0xbe337f9a	-0.17529145
78	0xbdda4426	-0.106575295
79	0xbeea5e60	-0.45775127
80	0xbe01928c	-0.1265356
81	0x3e40fe0d	0.18846913
82	0xbe13afdb	-0.14422552
83	0xba4d741d	-0.00078374316
84	0x3b8d309f	0.0043087746
85	0xbc4ae08a	-0.012382636
86	0xbe3f4ca9	-0.18681587
87	0xbe161838	-0.14657676
88	0xbd6b9caf	-0.057522472
89	0xbdce45af	-0.10071885
90	0xbe9b0929	-0.30280426
91	0x3e1113af	0.14167665
92	0xbf15db85	-0.58538085
93	0x3c9b2d9d	0.018942649
94	0xbe0f6376	-0.14002785
95	0x3da3de03	0.0800133
96	0xbe8309c2	-0.25593382
97	0x3d9b1c7f	0.075737946
98	0xbdcb0822	-0.099136606
99	0x3e32df72	0.1746805
100	0xbe56a497	-0.20961224
101	0xbe3577cc	-0.1772148
102	0xbf038a4d	-0.51382905
103	0x3d8d8aac	0.06911215
104	0x3dd4a0f9	0.103822656
105	0x3e418b21	0.1890073
106	0xbe80c83e	-0.25152773
107	0xbe413d5a	-0.1887106
108	0xbe36c41e	-0.1784825
109	0xbe0dd216	-0.13849673
110	0x3c18531a	0.009297157
111	0xbee22d78	-0.44175315
112	0xbe60ff6a	-0.21972433
113	0xbecc9cb8	-0.39963317
114	0x3dca90dd	0.09890912
115	0xbdfd09e2	-0.123554006
116	0xbe499b1e	-0.19688079
117	0xbec448d8	-0.38336825
118	0xbee5bbc4	-0.44869816
119	0xbe8353c1	-0.25649837
120	0x3da8ddbd	0.08245418
121	0xbe0f5af8	-0.13999546
122	0x3da50e88	0.08059412
123	0xbc8cf702	-0.017207626
124	0xbecfdb5a	-0.4059704
125	0x3e260eca	0.16216579
126	0xbc1cd798	-0.009572886
127	0x3ad7f2b2	0.0016475527
128	0x3c1bbf81	0.009506107
129	0xbea1ce74	-0.31602824
130	0xbd92ed98	-0.07174224
131	0x3e2e945f	0.17048787
132	0x3ea046e6	0.3130409
133	0x3dc9de62	0.09856869
134	0xbec4fbf4	-0.38473475
135	0xbe0df8c4	-0.13864428
136	0x3dd2e37f	0.10297298
137	0xbe659225	-0.22419031
138	0x3d8a883f	0.06764268
139	0xbed5e28f	-0.41774413
140	0xbd7b9214	-0.061418608
141	0xbc13fcfb	-0.009032483
142	0xbd2e4687	-0.04254773
143	0x3dae2635	0.08503381
144	0x3dca277f	0.098708145
145	0x3d80eb72	0.06294908
146	0xbc144e4a	-0.009051869
147	0xbe5b05a5	-0.21388872
148	0xbe8c6676	-0.27421921
149	0xbe805dc0	-0.25071526
150	0xbe0a95f6	-0.13533768
151	0x3dc7fd25	0.0976508
152	0x3de5b88d	0.11216841
153	0x3e2ae38c	0.16688365
154	0x3ccd44c0	0.025057197
155	0xbf115607	-0.5677189
156	0x3d17764e	0.03697806
157	0x3e0e7395	0.13911279
158	0xbe50af7d	-0.20379443
159	0xbea38106	-0.31934375
160	0xbd4c136f	-0.04982322
161	0xbe0f1147	-0.13971435
162	0x3de1d472	0.11026849
163	0xbec8d0b4	-0.39221728
164	0xbee2bc76	-0.4428441
165	0xbb9a1ced	-0.0047031553
166	0xbd5598c8	-0.052147657
167	0x3ccfe33e	0.025376912
168	0xbe952588	-0.29130197
169	0xbc646506	-0.0139401015
170	0xbb6173d0	-0.0034401305
171	0x3e16c080	0.1472187
172	0xbd2d128d	-0.04225402
173	0xbe408cce	-0.18803713
174	0x3d898346	0.067144915
175	0x3d5d7e46	0.0540755
176	0xbe06235d	-0.13099428
177	0xbe7465b5	-0.23866923
178	0xbd879467	-0.066201024
179	0xbea9cbc3	-0.3316327
180	0xbeda6fc4	-0.42663395
181	0xbe8c5b58	-0.2741344
182	0xbe371b6b	-0.17881553
183	0xbecbe289	-0.3982127
184	0x3e59eb96	0.21281275
185	0xbe99743a	-0.29971486
186	0xbe7397cf	-0.23788379
187	0xbe4a96e0	-0.19784117
188	0xbe7a002e	-0.24414131
189	0xbe49a7cc	-0.19692916
190	0x3d6ed1e4	0.058305636
191	0xbe888bf2	-0.2666927
192	0xbece6b11	-0.4031606
193	0x3e021127	0.12701856
194	0xbe683c3d	-0.22679229
195	0xbedc50a8	-0.43030286
196	0xbd516201	-0.051118854
197	0xbdd9aed4	-0.10629049
198	0xbe11916d	-0.14215632
199	0xbeb0bcfe	-0.3451919
200	0x3dcb2774	0.099196345
201	0xbee712b5	-0.4513146
202	0xbdb9fa29	-0.090809174
203	0xbe93dc5c	-0.28879058
204	0x3e1bdef4	0.15221769
205	0xbe69b49a	-0.228228
206	0xbde1dcc3	-0.11028435
207	0xbe4d6bff	-0.20060728
208	0xbe8ff34b	-0.28115305
209	0xbe771698	-0.24129713
210	0xbdd69757	-0.104780845
211	0x3dda0529	0.106455155
212	0xbec31e79	-0.38109186
213	0x3e007331	0.12543942
214	0xbdaa9b7c	-0.083304375
215	0xbddf5419	-0.10904712
216	0xbd070bd8	-0.03297028
217	0x3de3d8f2	0.111253634
218	0xbeadf276	-0.33974046
219	0xbde6a3a7	-0.11261683
220	0x3c81c4e8	0.015840963
221	0xbe87310e	-0.26404613
222	0xbd8114a6	-0.063027665
223	0xbe8bf673	-0.27336463
224	0x3d870f88	0.06594759
225	0xbd5c0872	-0.05371899
226	0xbe92b072	-0.28650242
227	0x3e6bd2e4	0.23029667
228	0xbe6809bd	-0.22659965
229	0xbe215e89	-0.15758719
230	0xbdfb8b82	-0.122824684
231	0x3cfefbea	0.031125981
232	0x3e0426fc	0.12905496
233	0xbdc25931	-0.09489668
234	0x3d836667	0.06416016
235	0xbdcfdd52	-0.101496354
236	0xbe8930b6	-0.26794976
237	0xbe8a68da	-0.2703312
238	0x3d3c87f7	0.046028104
239	0xbdb31f3e	-0.08746193
240	0xbf1400b8	-0.57813597
241	0xbca67c5b	-0.02032297
242	0xbe08c61b	-0.13356821
243	0xba46a352	-0.0007577437
244	0xbea363c8	-0.31912065
245	0xbeb736fa	-0.3578413
246	0x3e27a24b	0.16370504
247	0xbf05c8ba	-0.5225941
248	0xbe37b2ce	-0.17939302
249	0x3d01f2b2	0.031725593
250	0xbf135094	-0.5754483
251	0x3dbdeabf	0.0927329
252	0x3dc0d687	0.09415918
253	0xbe879f35	-0.26488653
254	0x3db2d24c	0.08731517
255	0xbeec536f	-0.46157405
